cw1_pd/simple_model.tar (torch, 2168 bytes, 3 tensors)

linear1.weight f4 [4, 2]
00000000: ee49 923f 6185 94bf a9f9 1440 8d62 1dc0
00000010: 1b7d e7bf 665d cf3f d761 823e fe4d f23e
1.1428812 -1.1603204 2.327738 -2.45914 -1.8085054 1.6200378 0.2546527 0.47325128

linear1.bias f4 [4]
00000000: e3db 223f c48d 98bf 5d65 4ebf f104 423f
0.6361677 -1.1918263 -0.8062342 0.7578879

linear2.weight f4 [1, 4]
00000000: 58ff 8ebf 20c5 3340 e899 ff3f a06b 873f
-1.1171675 2.8089066 1.9968843 1.057972
